…
+Mathematically, MoE layer is considered as a "sparse" FFN. If we concatenate all experts, it will be dense linear layers with $(H, I\times n)$ parameters. For each token feature vector, we mask out $(n-k)/n$ rows or columns, where the masked rows are chosen by the router. Therefore, compared to dense models with the same number of parameters, the MoE will only take $k/n$ computations plus some routing overhead (which is small compared to MLP matmuls).
 
 ### Case: Mixtral8x7B
+
 Mixtral8x7B (32 decoder layers) model parameters vs Llama2 70B (80 decoder layers)
 
-|     | Mixtral shape | n_params | Llama2 70B shape | n_params |
-| --- | ---           | --- |  --- | --- |
-| attn K proj | (4096, 1024) | 4M | (8192, 1024) | 8M |
-| attn Q proj |  (4096, 4096) | 16M | (8192, 8192) | 64M |
-| attn V proj |  (4096, 4096) | 16M | (8192, 8192) | 64M |
-| attn out proj |  (4096, 4096) | 16M | (8192, 8192) | 64M |
-| attn normalization | (4096, ) | 4k | (8192, ) | 8k |
-| FFN router |  (4096, 8) | 32k | - | -  |
-| FFN gate proj |(4096, 14336, 8) | 448M<br>(112M active) | (8192, 28672) | 224M | 
-| FFN up proj | (4096, 14336, 8) | 448M<br>(112M active) | (8192, 28672) | 224M | 
-| FFN down proj |  (14336, 4096, 8) | 448M<br>(112M active) | (28672, 8192) | 224M | 
-| FFN normalization |  (4096, ) | 4k | (8192, ) | 8k |
-| total | | $32 \times 1.4 \approx 42$B<br>$32 \times 0.388 \approx 12$B activated | | $80\times 0.872\approx 54$B
-
-Note that Mixtral has similar number of parameters. However, Mixtral only uses $2/8$ of the weights, hence the FFN computations are far smaller. 
+|                    | Mixtral shape    | n_params                                                               | Llama2 70B shape | n_params                    |
+| ------------------ | ---------------- | ---------------------------------------------------------------------- | ---------------- | --------------------------- |
+| attn K proj        | (4096, 1024)     | 4M                                                                     | (8192, 1024)     | 8M                          |
+| attn Q proj        | (4096, 4096)     | 16M                                                                    | (8192, 8192)     | 64M                         |
+| attn V proj        | (4096, 4096)     | 16M                                                                    | (8192, 8192)     | 64M                         |
+| attn out proj      | (4096, 4096)     | 16M                                                                    | (8192, 8192)     | 64M                         |
+| attn normalization | (4096, )         | 4k                                                                     | (8192, )         | 8k                          |
+| FFN router         | (4096, 8)        | 32k                                                                    | -                | -                           |
+| FFN gate proj      | (4096, 14336, 8) | 448M<br>(112M active)                                                  | (8192, 28672)    | 224M                        |
+| FFN up proj        | (4096, 14336, 8) | 448M<br>(112M active)                                                  | (8192, 28672)    | 224M                        |
+| FFN down proj      | (14336, 4096, 8) | 448M<br>(112M active)                                                  | (28672, 8192)    | 224M                        |
+| FFN normalization  | (4096, )         | 4k                                                                     | (8192, )         | 8k                          |
+| total              |                  | $32 \times 1.4 \approx 42$B<br>$32 \times 0.388 \approx 12$B activated |                  | $80\times 0.872\approx 54$B |
+
+Note that Mixtral has similar number of parameters. However, Mixtral only uses $2/8$ of the weights, hence the FFN computations are far smaller.
…
